model/checkpoint/neucf2-epoch=00-val_loss=0.69-val_ndcg=0.74.ckpt (torch, 78195 bytes, 33 tensors)

user_fc_1.weight f4 [16, 4]
000000 00 a2 9a bd c8 49 bf 3e b6 83 d8 be c4 68 23 3e
       -0.0755043 0.37360978 -0.42287987 0.15957934
000010 cc 25 b1 3e b4 2d f4 3e 7e 03 d5 be 98 01 d2 3d
       0.3459915 0.4769112 -0.41604227 0.1025421
000020 7c 3d d6 be b0 02 b0 3d e0 07 99 bd 00 48 14 3a
       -0.41843784 0.085942626 -0.07472205 0.0005656481
000030 68 7f ee be 5a b4 d7 be 89 14 e9 3e d0 a7 bd 3d
       -0.46581578 -0.42129785 0.4552348 0.09260523
000040 be b4 cf be e2 ed 89 be c6 09 f7 3e 24 f0 4d be
       -0.40567583 -0.26939303 0.48249644 -0.20111138
000050 50 db 1d bd 9c 63 f5 be 5a a8 8e be 00 d3 e3 bd
       -0.03853923 -0.47927558 -0.27862817 -0.111242294
000060 8c 87 af bd e9 12 d8 be 16 72 01 3f 5e 96 59 3d
       -0.085707754 -0.42201927 0.50564706 0.053121917
000070 56 d2 c4 3c f9 4d ed be 42 eb 90 3d f8 d2 d3 3e
       0.024026077 -0.4634855 0.07076122 0.41371894
000080 b4 6c b4 be d0 f5 0b 3e 98 4a 4b be 80 74 bd 3e
       -0.35239184 0.13667989 -0.19852674 0.37002945
000090 ce 0f 90 be 00 10 00 b9 18 1f d7 3d 40 87 44 be
       -0.28137058 -0.00012212992 0.105039775 -0.19192219
0000a0 29 b1 4a be 2c 9e b9 be 3c d8 19 3e 73 83 f2 3e
       -0.19794144 -0.36253488 0.15023893 0.47365913
0000b0 82 a3 f8 3a 0e 84 ae 3e c1 8f ff 3d da 1a b4 3c
       0.0018969628 0.34085125 0.12478591 0.02198546
0000c0 90 2f ca 3d f8 34 2d 3e d0 23 f7 bd 18 fe 99 bd
       0.09872353 0.16914737 -0.120673776 -0.07519168
0000d0 86 a0 80 bc c7 79 22 be 98 f0 51 3e ec 67 f3 be
       -0.015701544 -0.15866767 0.20501935 -0.47540224
0000e0 fe 0b b4 3c 8f 74 b8 bd 87 96 a5 3d dd fd d9 be
       0.021978375 -0.09006607 0.080853514 -0.42576495
0000f0 1c de 5f be c4 c3 94 be 94 ad 43 be f4 4a 7c be
       -0.21862072 -0.29055607 -0.19109184 -0.24637967

user_fc_1.bias f4 [16]
000000 ca 38 fc be 00 aa 8c 3d 3c 88 22 be bf 99 a1 3d
       -0.49262077 0.068683624 -0.15872282 0.07890653
000010 12 48 b8 bc a8 8b 94 bd 57 87 b6 be 9c 6e 40 3e
       -0.022495303 -0.072532 -0.3565013 0.18792194
000020 28 a7 41 3e 66 66 80 3e f9 d9 aa 3e 82 54 35 3e
       0.18911421 0.25078124 0.33369425 0.17708018
000030 38 be 0f 3e 49 e2 f4 3e 2c 31 9f 3e 64 3f 7a be
       0.14037406 0.47828892 0.31092203 -0.24438244

item_fc_1.weight f4 [16, 54]
000000 90 95 1c bd 40 0a c6 bc 30 3d 44 3d b0 b1 5f 3d
       -0.03822857 -0.02417481 0.047909915 0.054612815
000010 f0 25 da bd 62 d8 d9 3d 06 3b fe bd 88 75 55 bd
       -0.10651767 0.10636975 -0.124136016 -0.05211404
000020 ad 61 00 be 98 93 2f bd 00 57 7b bc 94 74 b5 3d
       -0.1253726 -0.042865366 -0.015340567 0.08860126
000030 c2 e1 d3 bd f4 5d f6 3d cc 27 c5 bd 77 fb b0 bd
       -0.10345794 0.12029639 -0.09626731 -0.08641713
000040 40 e8 10 bb f0 53 65 3d 7a 98 ad 3d fa 25 e4 bd
       -0.0022111088 0.055988252 0.08476348 -0.11140056
000050 d2 5f b3 3d e2 be 94 3d 7b f3 d7 bd 74 27 28 bd
       0.08758511 0.072629705 -0.10544487 -0.04105325
000060 9c a3 a4 3d f8 f3 bf bc e0 39 fc 3b b4 14 1a 3d
       0.080390185 -0.023431763 0.007697329 0.0376174
000070 28 87 f1 3c 5a 69 46 bd 8c 23 06 3d 00 a0 d2 bc
       0.029483393 -0.048440315 0.032748744 -0.02571106
000080 4c 43 12 3d 2e ee 02 3e 48 f7 8c 3d 50 df 75 bc
       0.03570871 0.12786171 0.06883103 -0.015006855
000090 00 dc f7 ba e0 0e 99 3b eb 68 90 bd 1c 68 08 3e
       -0.001891017 0.0046709627 -0.070512615 0.13320965
0000a0 22 e6 fc bd d4 cf ee bc 90 d6 b9 3d 68 d6 3b 3d
       -0.12348582 -0.029151835 0.09074128 0.04585877
0000b0 60 54 ad bb 41 24 dc bd e6 bc 0a 3e 42 53 e1 3d
       -0.0052895993 -0.107491024 0.13548622 0.11002208
0000c0 d6 b6 ad 3d f6 a1 87 3d a8 27 a1 3d 60 83 04 bc
       0.08482139 0.066226885 0.07868892 -0.008087963
0000d0 ec a4 a0 3d f0 3a da bc d1 54 34 bd 17 ed 88 3d
       0.07843956 -0.026639432 -0.0440262 0.06685846
0000e0 92 90 ed bd 0e fd 07 be a5 08 49 bd 78 a8 6c bc
       -0.1159984 -0.13280126 -0.04908051 -0.014444463
0000f0 9d 51 b5 bd 7d f8 7c 3d 68 a6 fa 3d 7f aa 7a bd
       -0.08853457 0.061760414 0.12238771 -0.061197754
000100 02 2d a1 3d 48 29 58 3d 7c 2d 82 bc 8e 29 d3 3d
       0.07869913 0.052773744 -0.01589083 0.1031066
000110 66 61 16 bd 8b 19 ff bd b8 22 ed 3d 0d 40 40 bc
       -0.03671398 -0.12456044 0.11578888 -0.011734021
000120 b6 c9 ab bb 00 ee 28 ba ea fc f0 bd 80 53 e7 bd
       -0.0052425517 -0.0006444156 -0.117669895 -0.11295223
000130 f5 00 c4 bd 4b 8d e5 3d 8b 33 79 bd 03 6a 9e bd
       -0.09570495 0.1120859 -0.06084017 -0.07735064
000140 2e 5f be bd 81 e8 03 3d b7 4a c8 3d c0 e9 05 be
       -0.09295498 0.032204155 0.09779876 -0.1307745
000150 b4 7d f9 bc c6 84 5f 3d ae d8 dd 3d 98 18 98 bd
       -0.030455448 0.054569982 0.10832344 -0.07426566
000160 24 f4 91 3d 18 86 96 bb b6 d0 d8 bc 63 87 af bd
       0.07126644 -0.004593622 -0.026466709 -0.08570745
000170 e9 14 41 bd 23 16 1e bd b0 a9 1a bd b7 e2 0e bd
       -0.047139082 -0.03859533 -0.037759483 -0.03488418
000180 0d e0 b7 3d 84 7a f2 bd b9 f6 77 bd 01 fb b5 3d
       0.08978281 -0.11839774 -0.060538027 0.08885766
000190 a4 ad d7 bd 1d 30 ad 3d 4e 58 bb bd a2 a9 05 be
       -0.10531166 0.084564425 -0.09147702 -0.13052991
0001a0 3f af 07 bd 07 cf da bd 4d b7 7f bd 79 09 05 be
       -0.033126112 -0.106840186 -0.06243067 -0.12991895
0001b0 40 9a f7 3b 16 67 dc bd 5e cc 8f 3d 77 aa 8e bd
       0.00755623 -0.107618496 0.07021402 -0.06966107
0001c0 ae 2c e7 3d 08 d1 e4 bc 22 76 da 3d 10 15 86 3c
       0.11287819 -0.027931705 0.10667063 0.016367465
0001d0 34 06 fe 3d b8 d0 77 3d 7c ac ff 3d 98 80 b8 bd
       0.12403527 0.060501784 0.12484071 -0.09008902
0001e0 f4 f7 fe bd 44 03 c3 3d 6a ba 71 bd 88 10 ae 3c
       -0.12449637 0.09522107 -0.05901567 0.021248117
0001f0 d8 28 55 3d d0 ee 5f 3c 4a fb d7 bd 3c 0b 46 3d
       0.052040905 0.013667777 -0.105459765 0.048350558
000200 00 b0 16 bc 56 05 c8 3d 58 16 89 3d e0 94 f8 3d
       -0.009197235 0.09766643 0.06693715 0.12137771
000210 c4 00 ff bd c0 d9 cc 3d c0 c0 95 3b 52 1e 14 bd
       -0.12451318 0.1000247 0.0045700967 -0.03616173
000220 3a 26 bf bd a0 a7 2c 3d b8 1a ea 3d 3a 3c 52 bd
       -0.09333463 0.042152047 0.114308774 -0.051326968
000230 c8 17 f3 bd ec 64 5d bd 04 60 e1 bd 90 7c 56 bd
       -0.1186977 -0.054051325 -0.11004642 -0.052364886
000240 40 64 c3 3c 90 1e fc bc 7c f4 c7 3d b0 11 ef 3d
       0.023851514 -0.030776292 0.097634286 0.116732955
000250 c0 49 02 bc f4 93 a6 3d 20 91 9d bd c6 73 2d bd
       -0.007952154 0.081336886 -0.07693696 -0.04234674
000260 37 25 94 bd da 3d cc bd aa ed 2c bd c6 1e be bd
       -0.07233661 -0.09972735 -0.04221884 -0.09283213
000270 1d 51 e7 bd 80 e4 1d 3b cc 39 f7 3d d0 0d 99 bd
       -0.11294768 0.0024092495 0.12071571 -0.07473338
000280 98 95 74 3d 06 35 c7 bd 90 0c 87 3c eb 24 f1 bd
       0.059712976 -0.0972691 0.016485482 -0.1177462
000290 ca 81 8f bd 5c 62 84 3d dc 34 9c bd 44 97 a1 bd
       -0.07007177 0.06464073 -0.076272696 -0.0789018
0002a0 84 32 5e bd 01 cc 89 bd 94 82 ed 3d 62 90 57 bd
       -0.054247394 -0.06728364 0.115971714 -0.05262793
0002b0 8c ce f1 bd 24 32 a2 3d 87 4d 94 bd 88 c0 fd 3d
       -0.11806974 0.0791972 -0.0724135 0.12390238
0002c0 c0 f1 03 be 5a ee e4 bd 6c 7b bb bd 80 92 9b bc
       -0.12885189 -0.111782745 -0.091544 -0.018990755
0002d0 85 cc 06 be 00 93 f3 bb 83 dd a6 bd d4 c4 6b bd
       -0.13163956 -0.0074332952 -0.08147719 -0.057560757
0002e0 66 4c 31 bd 08 1c c7 bd b8 bb 3e bc 38 99 eb 3d
       -0.04328575 -0.097221434 -0.011641435 0.115038335
0002f0 f7 28 04 be 06 25 05 bd 3c cb 11 3d 22 55 20 bd
       -0.12906252 -0.03250601 0.03559421 -0.03914369
000300 54 4e 84 bd a8 fe ff 3d f0 a3 cc 3d 11 f7 cf bd
       -0.064602524 0.12499744 0.09992206 -0.10154546
000310 58 20 55 3d b6 0c d0 3d ca 79 32 bd d4 e1 8a bc
       0.0520328 0.101586744 -0.04357318 -0.016953386
000320 bc 0b 8e bc 80 97 5d 3d 64 87 36 3d 7c be b8 bc
       -0.01733958 0.05409956 0.044562712 -0.022551768
000330 1e 98 9e bd dc 75 67 bd 48 48 8a bd 18 08 eb 3d
       -0.07743858 -0.056508884 -0.06752068 0.11476153
000340 df 45 ff bd d6 48 c4 3d f6 29 03 bd 28 3b 11 3d
       -0.12464499 0.09584205 -0.03202244 0.035456806
000350 f7 82 cb bd f7 83 c0 bd d8 76 f4 3d 00 a9 e8 3c
       -0.09937089 -0.0940017 0.1193673 0.028400898
000360 91 4a d1 bd a2 b0 02 be 94 99 05 bd f0 52 54 bc
       -0.102193005 -0.12762693 -0.032617167 -0.012959227
000370 34 64 00 3e 3a 74 93 3d b4 8d 1d 3d 40 f7 05 3c
       0.12538224 0.07199903 0.038465217 0.008176625
000380 ae 7b 07 3e 38 ab 02 be f9 e9 03 be 62 34 0b 3e
       0.13230774 -0.12760627 -0.12882222 0.13594201
000390 48 71 c5 bd 88 f9 aa 3d cc 3c 7e bd 10 2a 81 bd
       -0.09640747 0.083483756 -0.0620697 -0.06306851
0003a0 1a 5d dd bd b0 8f e9 3c 71 42 d5 bd a4 51 88 3d
       -0.10808773 0.028510898 -0.10413063 0.06656197
0003b0 68 19 1f bd 90 5b 18 3c e2 72 de 3d 13 76 d0 bd
       -0.03884259 0.009299174 0.10861756 -0.10178771
0003c0 a0 3b bf 3b 0a 5d c6 bd 20 4a 32 bd c0 50 6e 3c
       0.0058359653 -0.096857145 -0.043527722 0.0145456195
0003d0 b8 a3 5f bc 58 fa f9 3c 75 27 0a be e4 45 ec 3d
       -0.013649873 0.030514881 -0.13491614 0.11536768
0003e0 3c 50 44 bd ec f1 82 3d 05 5a b9 bd e8 ab fd 3d
       -0.04792808 0.06393799 -0.09050373 0.12386304
0003f0 40 a2 5e bb 50 9b c6 bd 10 f9 b0 3c a0 7c a7 bd
       -0.003397122 -0.09697592 0.021603137 -0.08178067

item_fc_1.bias f4 [16]
000000 62 b0 00 bd 9c bf c9 3d 44 19 d8 3d 40 7c 34 3b
       -0.03141821 0.09851 0.10551694 0.002753988
000010 20 75 d7 bb c7 73 f8 bd 86 ee a5 bd f6 63 1c bd
       -0.0065752417 -0.12131458 -0.08102135 -0.038181268
000020 1a 1b 8b bc ef 40 e2 3c d8 d6 6f 3d 7c 9b b6 3d
       -0.016980696 0.027618853 0.0585545 0.08916375
000030 2a 02 f6 bc 0e 6c 55 3d 50 db 42 3d fa 2c 50 bb
       -0.030030329 0.052105002 0.047572434 -0.003176509

user_fc_2.weight f4 [8, 16]
000000 d8 ff 72 bd a0 5a b4 bd 80 bc d9 3b 36 76 42 be
       -0.059326023 -0.08806348 0.0066447854 -0.18990406
000010 88 f6 69 3e 8c b4 34 be 54 74 09 3e 84 89 72 3e
       0.2284795 -0.17646998 0.13423282 0.2368527
000020 88 b7 16 be 58 07 44 3e 5c a1 56 be 3f 71 01 be
       -0.14718449 0.19143426 -0.20959991 -0.12640856
000030 d8 42 27 3d e9 65 b0 3c 33 b2 36 be 8e 1e 17 3e
       0.04083523 0.02153297 -0.17841415 0.1475775
000040 f4 57 3d be 70 d6 90 3d 5c f9 35 be 7a fe 7e 3e
       -0.18490583 0.07072151 -0.17770904 0.24901763
000050 8c 1b a9 bd 18 2d 37 3d 42 b6 1d be 68 75 a3 bd
       -0.08257207 0.04472074 -0.15401557 -0.07981378
000060 48 c7 00 bd 74 ac c9 bd da 5b 67 be 88 40 d9 bd
       -0.03144005 -0.09847346 -0.22593632 -0.106080115
000070 1e aa 51 3e e4 23 93 3d 64 ef 5c be 24 2e 59 be
       0.20475051 0.0718458 -0.21575695 -0.21209008
000080 c8 13 4d 3d 4e cb 63 be 00 f0 6f 3c 5c 6f 3b 3d
       0.050067693 -0.22245523 0.014644623 0.045760497
000090 9f bf 7d 3e ae 6a 02 be 60 65 71 be 3a e2 08 be
       0.24780129 -0.12736008 -0.23573828 -0.13367549
0000a0 08 68 a6 3d 20 86 9e bd a5 3f 27 3e ab 89 83 3e
       0.08125311 -0.07740426 0.16332872 0.2569097
0000b0 c0 6a d9 bc 25 a9 35 3d 3d e8 1d 3e 38 8a e6 bd
       -0.02654016 0.044350762 0.15420623 -0.11256832
0000c0 e0 dd 13 bc 70 32 2b bd 00 ce b2 3a 1e d9 52 be
       -0.009025067 -0.041796148 0.0013641715 -0.20590636
0000d0 3e 19 b8 3d 10 ee 63 3d fa f6 4a bd 26 99 2f 3e
       0.089891896 0.055646956 -0.04955194 0.17148265
0000e0 f8 07 7d 3e c2 6a 14 3e d7 86 51 3d 59 5b 73 3e
       0.24710071 0.1449385 0.051153984 0.23765315
0000f0 80 90 62 3d 5d 75 37 3c 83 f0 e9 3d 40 75 c3 bd
       0.055313587 0.011197415 0.11422827 -0.09543848
000100 68 77 60 bd a8 bb 7f bd 08 63 e0 bd 46 bc 3e 3e
       -0.054801375 -0.062434822 -0.10956389 0.18626508
000110 4b e1 66 3e f0 5e ab 3c fd a3 68 3e 7c b0 dc 3c
       0.2254688 0.020919293 0.22718807 0.026939623
000120 26 71 74 be 48 70 dd bd 66 9b f6 3d a4 4c 54 be
       -0.23871288 -0.108124316 0.12041359 -0.20732361
000130 d8 f4 3a bd 50 4a 69 be cb d1 d5 3d 00 78 7a bb
       -0.045643657 -0.22782254 0.104404055 -0.0038218498
000140 54 52 a2 3d 68 2b 3b 3d c6 d9 55 3e 6a ce 11 3e
       0.07925859 0.045695692 0.20883855 0.14238897
000150 c0 04 ad 3d ee be 51 be 4d e5 5c be cb 9d 41 3e
       0.084481716 -0.2048299 -0.21571846 0.1890785
000160 f0 c1 4b 3d be 24 76 3e 68 1d 17 3d 54 01 94 bd
       0.0497455 0.24037454 0.03689328 -0.07226816
000170 96 8d 69 be 4d ee 36 3e 34 27 31 3e 18 84 0a 3e
       -0.22807917 0.17864342 0.17300111 0.13526952
000180 98 c6 87 bd 10 dd 9d 3d a0 1b 1c be 5e 0f d4 bd
       -0.066296756 0.0770818 -0.15244913 -0.103544936
000190 3e ee 35 bd e0 77 13 be d5 cb 21 3e 67 48 d5 bc
       -0.04441666 -0.14401197 0.15800412 -0.0260355
0001a0 1a f4 1a 3e 00 dc a6 39 cf a1 13 3e 09 3c 2c 3e
       0.1513218 0.000318259 0.14417194 0.16819777
0001b0 08 ed e6 3d db 8b 23 bd 75 f7 57 be c8 a1 f4 3d
       0.11275679 -0.0399283 -0.21090491 0.1194492
0001c0 fc 34 2c 3e 20 40 b4 bd f4 9b 02 3e 3b 00 47 be
       0.16817087 -0.088012934 0.12754804 -0.19433682
0001d0 c9 17 4b be ec a3 d8 bd 98 7f 50 3e 8d 6d 48 3e
       -0.19833292 -0.105781406 0.20361173 0.1957304
0001e0 14 52 8a 3d 4a 99 64 3e fb c9 b6 3d 66 e0 35 be
       0.067539364 0.223241 0.089252435 -0.17761382
0001f0 80 8b bc 3c 63 2d 14 3e 6e 67 1f 3e ba 03 74 be
       0.023015738 0.14470439 0.15566799 -0.23829547

user_fc_2.bias f4 [8]
000000 99 06 f8 bc 4c ab fa bd 19 b1 21 be 93 40 0a bd
       -0.030276584 -0.122397035 -0.15790214 -0.03375299
000010 aa 2f ed 3d 87 f5 c6 bc ed 2d 5d be 24 24 22 3e
       0.11581357 -0.024286998 -0.2159955 0.15834099

item_fc_2.weight f4 [8, 16]
000000 be b8 2d 3e 28 9a 46 3e fc a3 d6 3d 40 5a 7a 3c
       0.16965005 0.19394743 0.10480496 0.015280306
000010 40 76 56 3c 3c f5 20 3e d4 20 82 3d 00 7d 13 3b
       0.013089716 0.1571855 0.06353918 0.0022504926
000020 64 cb 9d 3d 80 7d 94 bb 70 87 25 3d c6 b4 02 be
       0.07704809 -0.0045315623 0.040412366 -0.12764272
000030 d4 f5 3e be 30 fb 4f 3d b0 ba fd bd 52 15 42 be
       -0.18648463 0.05077666 -0.123891234 -0.18953446
000040 8a ef 7c 3e 2b bc d5 3d cc 1c d0 bd 18 1a 81 3d
       0.24700752 0.10436281 -0.101617426 0.06303805
000050 60 cb be 3c ec a0 ae 3d 80 2e 3c 3e f4 35 9f bd
       0.023290336 0.08526787 0.18377113 -0.077739626
000060 d2 d7 35 3e e1 05 3a 3e c0 15 08 be 3e 0f 7b 3e
       0.1775811 0.18166305 -0.13289547 0.24517533
000070 8b e7 4c 3e 7b 0e 3e be be e5 fa bd f8 c5 5e 3e
       0.20010202 -0.18560211 -0.12250851 0.21755207
000080 58 bf 29 be 8f d7 03 be 34 cf e5 3d f2 45 01 be
       -0.16576898 -0.12875198 0.112211615 -0.12624338
000090 2c aa 96 bd 0c a7 29 3e 60 d9 d7 bc 9a e2 68 3e
       -0.073566765 0.1656763 -0.02634877 0.22742692
0000a0 4e 6a 1c 3e 6e 4f ec bd d0 f6 de 3d 3e 1a 71 be
       0.15274927 -0.115385875 0.108869195 -0.23545167
0000b0 03 fb af 3d 42 57 2f 3e 6e 50 46 3d ac 54 2f be
       0.085927986 0.1712313 0.048416547 -0.17122144
0000c0 88 e4 48 3e b9 f4 59 3e a8 c4 12 be 5e 1a 08 3e
       0.19618428 0.2128476 -0.14332831 0.13291308
0000d0 fe ed 20 be 02 cf 0d be 8c d1 3b be 00 7e cd 3d
       -0.15715787 -0.13848498 -0.18341655 0.10033798
0000e0 50 c4 5d be e0 d5 29 be 70 0a 89 3d cc ff 8c 3d
       -0.21656919 -0.16585493 0.06691444 0.06884727
0000f0 11 3e bc 3d e8 81 3f 3d 88 4b f8 3d 5c 7b 21 bb
       0.09191526 0.046754748 0.121237814 -0.0024640178
000100 b0 5e f8 3d ee 5f d1 3d 00 ac 1c bb d4 96 d2 bd
       0.12127435 0.10223375 -0.002390623 -0.102826744
000110 08 67 49 3e d0 51 ba 3c 64 a7 59 3e 36 ec 22 3e
       0.1966821 0.02274409 0.2125526 0.1591042
000120 05 5b 96 3d c1 ba f4 3c a8 c8 21 3d c8 3d 9b 3d
       0.07341579 0.029874207 0.039498 0.07580143
000130 c8 b2 f5 bd 2d 2e b4 3d 23 fe 1e be e4 cf d8 3d
       -0.119969904 0.0879787 -0.15526633 0.10586527
000140 08 e5 37 3d 3c 96 47 3e e8 b7 f1 bd a2 7e 7b 3e
       0.044896156 0.19490904 -0.118026555 0.24560025
000150 c0 80 93 bc 5c 71 6b be 86 59 23 be 70 69 1c 3d
       -0.018005729 -0.22992462 -0.15952119 0.03818649
000160 62 74 16 3e ec ed 8a bd 06 a1 7e 3e 78 24 89 bd
       0.14692834 -0.06783661 0.24866113 -0.06696409
000170 c8 a9 31 bd c6 fb 45 be 76 bf 6b be f8 be b1 bd
       -0.043374807 -0.19334325 -0.23022255 -0.086790025
000180 e2 7b 31 3e 94 1a 5b 3e 8a 6f 21 be 0c 22 8b 3d
       0.17332414 0.21396858 -0.15765205 0.06793603
000190 c4 f5 cd bd d8 6a 47 bd 24 5d 36 be 76 59 08 3e
       -0.10056642 -0.04868588 -0.17808968 0.13315377
0001a0 70 11 85 3d 89 aa ba 3d e0 d6 6f bc a8 89 75 be
       0.064974666 0.09114558 -0.014638633 -0.23978293
0001b0 7c da e4 bd 16 b9 39 3e 1d 0d 28 be 7e 28 55 3e
       -0.11174485 0.18137011 -0.16411252 0.20816228
0001c0 d0 fe d3 3c 3a fb 66 3e e4 5e c3 3d 70 e2 6d 3d
       0.02587834 0.22556773 0.09539583 0.058077276
0001d0 1c 41 01 be d0 12 77 bd 90 89 64 be f8 7a 2d 3e
       -0.12622494 -0.060320675 -0.22318101 0.1694144
0001e0 7c 78 0e 3e 50 b6 a3 bd b4 98 5c 3e a0 5a 30 be
       0.13913149 -0.07993758 0.21542627 -0.1722207
0001f0 6c 95 a6 bd d0 0c 78 bd 50 d2 3b bd c0 91 8b bb
       -0.08133969 -0.060559094 -0.045854867 -0.004259318

item_fc_2.bias f4 [8]
000000 f2 9c 5d be a6 e1 21 bd 29 44 e4 bd 94 89 33 be
       -0.21641901 -0.039521836 -0.11145813 -0.1753295
000010 ff 47 3c 3e f0 3d 24 3d ac d3 b3 3c 60 b6 1d bc
       0.1838684 0.04009813 0.021951519 -0.009626001

bilinear.weight f4 [16, 16, 16]
000000 b8 b2 31 3d be 08 35 be 00 a9 b9 3a 34 60 01 3e
       0.04338333 -0.17679116 0.0014164746 0.12634355
000010 e2 27 52 3e 3c 62 44 3e 3e fd 0b be ee c5 3d 3e
       0.20523027 0.19178098 -0.13670823 0.18532535
000020 1c 0c 72 be d8 c6 16 bd 98 62 37 3d 86 74 4b 3e
       -0.23637432 -0.036810726 0.04477176 0.19868669
000030 12 b3 50 3e 2c 30 37 be 68 00 19 bd 18 ab 05 be
       0.2038081 -0.1788947 -0.037353903 -0.13053548
000040 66 f9 40 3e fa 2d 2d be 82 88 01 3e fa 74 50 be
       0.18845138 -0.1691207 0.1264973 -0.20357123
000050 a0 d6 42 be c0 a2 4f be b2 ca 04 3e 10 00 c2 bd
       -0.19027185 -0.20276928 0.12967947 -0.09472668
000060 24 e0 2e be b0 33 09 3d 98 1e 5a bd f8 1b 3f 3d
       -0.1707769 0.03349656 -0.053251833 0.046657532
000070 4e 7f 65 3e 30 91 18 bd e0 77 84 3c 8e 11 10 3e
       0.22411844 -0.037247837 0.016170442 0.14069197
000080 02 c8 32 be d6 9f 43 3e 34 1d d9 3d 60 f2 5e 3d
       -0.1745911 0.19103941 0.10601273 0.054430366
000090 b0 c4 8f bd 88 cb c6 bd fc 49 ae bd 18 3c ef bd
       -0.07019937 -0.09706789 -0.08510205 -0.11681384
0000a0 62 15 46 3e f8 0c 8a bd a4 d8 e0 bd f4 67 11 be
       0.19344094 -0.06740755 -0.10978821 -0.14199811
0000b0 de 64 5e be 6a b1 51 3e 36 35 2d be 18 6f 9b bd
       -0.21718165 0.20477834 -0.1691483 -0.07589549
0000c0 14 41 56 3e 44 e2 c5 bd 88 f5 45 bd 8e 76 2c be
       0.20923263 -0.09662297 -0.04832986 -0.168421
0000d0 10 ee e7 bd b0 e2 0e 3d 00 6c 7d bc 00 e4 d2 39
       -0.11324704 0.034884155 -0.015467644 0.00040224195
0000e0 d4 da 38 3e 26 81 39 3e 2c 0d b5 bd bc db bc 3d
       0.18052226 0.18115672 -0.08840403 0.092215985
0000f0 39 1a a6 3d cf ac 45 be 90 1f 7c be 18 16 75 bd
       0.0811047 -0.19304202 -0.24621415 -0.059835523
000100 e0 fd 6d be 17 4d 13 be 68 dd cd 3d 9c 5e 66 be
       -0.23241377 -0.14384876 0.100519955 -0.22497028
000110 f8 1e 51 3d e0 f6 24 3d 20 cd 28 bc b4 02 db 3d
       0.051054925 0.0402745 -0.010302812 0.10693875
000120 25 0b 1c 39 a7 74 50 3e 9c 95 6b be 98 3e 2b 3d
       0.00014881471 0.20357 -0.2300629 0.04180774
000130 1b f7 cd bd ec d5 50 3e bd 02 42 3e 67 2e 3d be
       -0.10056897 0.20394105 0.18946357 -0.18474732
000140 20 cf f0 bc 08 c5 db bd 60 27 3e 3d 9c e9 c3 bd
       -0.02939564 -0.1073094 0.04642427 -0.09566042
000150 40 f5 a0 bc a8 8b 20 bd 00 04 2d 3b 64 a4 42 be
       -0.019648194 -0.039195687 0.002640009 -0.19008023
000160 bc 29 79 be e0 56 7f be 78 65 02 3d 30 ec a4 3d
       -0.24332327 -0.24935484 0.03183505 0.08052862
000170 a8 e4 7f be 00 a3 7d be 00 b1 9d 3c 00 0d eb bb
       -0.24989569 -0.24769211 0.01924944 -0.0071731806
000180 28 ce ad bd c0 40 1a be 48 89 14 bd 68 90 d4 3d
       -0.08486587 -0.15063763 -0.036263734 0.10379106
000190 f0 5a 07 be 44 ec de bd 00 b2 de bb 28 82 f0 3d
       -0.13218284 -0.10884908 -0.0067961216 0.11743575
0001a0 f5 5f 67 be f6 0b 4a 3e 1c 26 f2 3d 40 a4 65 3d
       -0.22595198 0.19731125 0.11823675 0.056064844
0001b0 03 2c d6 bd e0 80 f9 3d 88 29 3e bd 2b 51 48 3c
       -0.10457613 0.12182784 -0.046426326 0.012226383
0001c0 10 a3 7f bd 69 bc 1d 3d 50 dd fe bd 80 d6 5e be
       -0.062411368 0.03850976 -0.12444556 -0.21761513
0001d0 98 eb 61 3d c0 ef 52 3e e0 ff 6b 3e c2 ba 67 be
       0.05515632 0.2059927 0.23046827 -0.22629836
0001e0 3e 58 02 be ce bd be bd 50 ef 08 be a4 c1 d7 3d
       -0.12728974 -0.09313546 -0.1337254 0.10534981
0001f0 e9 45 22 bc 7a c0 07 be 3b 0b 34 3e c7 63 1e 3e
       -0.009904363 -0.13257018 0.17582409 0.1546775
000200 8a 5c 4f 3e 64 df dd 3d 70 4b 5a be c0 b5 cd 3d
       0.20250145 0.10833624 -0.2131784 0.10044432
000210 a0 3f 76 be be a0 01 3e f8 e8 6d bd c4 ab 2c 3e
       -0.24047709 0.12658975 -0.058083504 0.16862398
000220 30 d6 cc 3d f0 db 24 be 8c 76 4f 3e e0 1c b4 3d
       0.100017905 -0.16099524 0.20260066 0.0879457
000230 80 7c 60 3c a0 94 47 3d 30 97 43 3e 80 12 90 bd
       0.013701558 0.048725724 0.19100642 -0.070347786
000240 9a 94 2c 3e 3c fd 81 3d 20 da 16 3d 46 4d 0e 3e
       0.16853562 0.06347129 0.036829114 0.13896665
000250 18 8b 09 be 18 08 b4 3d 1c 99 ce bd 40 51 3b be
       -0.13431966 0.08790606 -0.10087797 -0.18292713
000260 16 c7 0c 3e 8c 9e 8d 3d ec d3 ae bd 22 78 39 be
       0.1374782 0.06915006 -0.08536515 -0.18112233
000270 7e 7f 31 be 64 21 65 be 50 06 4a 3d 94 7f 7f be
       -0.1733379 -0.22376019 0.049322426 -0.24951011
000280 70 48 bf bd 0d 28 fb 3d c8 7b d3 bd 00 83 30 be
       -0.09339988 0.122634985 -0.10326344 -0.17237473
000290 00 fb 26 bb e4 d2 c8 bd 5c b9 9c bd 7e 7e 6e 3e
       -0.0025479198 -0.09805849 -0.07652542 0.2329044
0002a0 ac 40 51 be 40 f4 0e bd 5c 25 cc 3d c2 62 61 be
       -0.20434827 -0.034900904 0.09968063 -0.2201033
0002b0 85 3b 09 bd 57 a0 06 be 28 68 9b bc f6 b7 86 3d
       -0.033504028 -0.13147102 -0.018970564 0.065780565
0002c0 34 45 b2 bd 9a de 40 3d ea 55 70 be 62 83 77 be
       -0.08704606 0.04708729 -0.23470274 -0.24171212
0002d0 bc 57 24 3e 4a 50 04 3e da 28 15 be 50 2b f2 bc
       0.16049093 0.12921253 -0.14566365 -0.029561669
0002e0 58 d8 a5 bc 0a 85 57 be 26 ee 1f 3e b6 21 0c 3e
       -0.020244762 -0.21046844 0.1561819 0.13684735
0002f0 84 9b 22 3e cd 34 07 3e 2d 24 5d 3e 8a 7f 8e bc
       0.15879637 0.13203736 0.21595831 -0.0173948
000300 90 e8 c9 3c d8 d1 d0 3d 16 72 18 3e 0c 22 c0 bd
       0.024647027 0.101962745 0.1488727 -0.09381494
000310 80 f9 8d bb 5c 72 59 3e 5e 86 13 be f8 19 1e 3d
       -0.0043327212 0.21235031 -0.14406726 0.038598984
000320 2c d5 48 3e b8 34 e9 3d 00 75 8b bc 8e 1c 5e 3e
       0.19612569 0.113870084 -0.017023563 0.2169058
000330 60 99 ba bd e2 d4 1f 3e 00 f5 89 3c ca 88 7f 3e
       -0.09111285 0.15608552 0.016840458 0.24954525
000340 b6 fd 66 3e 74 b9 28 3e a8 43 84 3d 42 55 1d 3e
       0.2255772 0.16476995 0.06458217 0.15364555
000350 c0 3c cf bb 88 9a 7a 3d d0 1f 66 bd 80 cf 9a 3d
       -0.0063243806 0.06118253 -0.056182683 0.07559109
000360 4b 3f 58 be 3c f6 6d bd 48 bd 02 bd 40 c5 4c be
       -0.21117894 -0.058096156 -0.031918794 -0.1999712
000370 c5 29 00 be c0 7f 9f bd b0 e5 5f 3d 9a 09 ea 3d
       -0.12515934 -0.07788038 0.054662406 0.114276126
000380 5c b5 fd 3d 31 4f 69 bd f8 57 ce bd 14 35 24 3e
       0.12388107 -0.05696029 -0.100753725 0.16035873
000390 40 85 93 bd d4 9f 53 be 58 ad 4a 3e d8 26 46 3e
       -0.0720315 -0.20666438 0.19792688 0.19350755
0003a0 3f 20 33 be 8f e2 a4 3d f0 1b 74 3d 6c 1b 24 3e
       -0.1749277 0.08051025 0.059596956 0.16026086
0003b0 7d 38 62 3e d8 00 58 bd 65 3f 58 3e 8a c3 91 bc
       0.22091861 -0.05273518 0.21117933 -0.017793436
0003c0 00 b6 bf bc c8 92 97 bd 08 94 24 be 6a 3d 7a be
       -0.023402214 -0.07401043 -0.16072094 -0.2443749
0003d0 06 c8 2e be 4c 3e 30 be 9c c4 03 3e 6c f7 10 3e
       -0.1706849 -0.17211264 0.1286797 0.14156884
0003e0 50 25 49 3e 14 7f 79 be 68 e5 61 be a0 a2 1d 3c
       0.1964314 -0.24364883 -0.22060168 0.009621292
0003f0 ac a5 ec bd 2e c2 1a be bc 19 27 3e 5a 25 07 3e
       -0.11555037 -0.15113136 0.1631841 0.13197842

bilinear.bias f4 [16]
000000 7f db dc 3d 23 d2 13 be 07 09 d9 3c ce 15 62 3e
       0.10784053 -0.1443563 0.026493562 0.2207863
000010 51 19 0c be 24 d7 0a 3c 01 f0 44 be 6b b1 5b be
       -0.13681532 0.008474145 -0.19232179 -0.21454398
000020 51 5c 62 3e 22 f6 90 bd 37 bd 33 3d f0 38 eb bc
       0.22105528 -0.07078196 0.04388162 -0.028713673
000030 e9 00 63 be 0b 4e 1d be d3 78 be bd 8c 58 f7 bd
       -0.22168316 -0.15361802 -0.09300389 -0.12077436

fc.weight f4 [1, 32]
000000 9e 03 39 be 7c ec 67 3d 24 c3 2d be bb 37 e9 3d
       -0.18067786 0.056622013 -0.16968971 0.11387583
000010 03 93 d8 bd 0e 3e 54 3c 83 15 e2 3c e2 6f 95 3d
       -0.10574915 0.012954248 0.027598148 0.072967306
000020 54 18 67 bd 91 73 90 3d a9 1e 16 3e 47 17 1b 3e
       -0.056419685 0.070532925 0.14660133 0.15145598
000030 b9 30 8a 3d bd e0 10 be 10 95 fd bd c6 38 bc 3d
       0.06747574 -0.14148231 -0.12381947 0.09190516
000040 29 e3 eb 3c b0 c7 9f bd 34 fa c0 bb 82 0d 91 bc
       0.028794842 -0.07801759 -0.0058892015 -0.017706636
000050 b7 0a 05 be 07 32 b7 3c b5 7c 8d bd 06 44 97 3d
       -0.12992369 0.022362722 -0.069085516 0.07386021
000060 84 00 f2 bc a6 00 37 be a8 38 f7 bd 51 3a ac bd
       -0.029541261 -0.17871341 -0.12071353 -0.084095605
000070 ac 5a f6 3d ad 3e d3 bd 03 4f 65 bc b7 5a ae 3c
       0.12029013 -0.10314689 -0.013995889 0.02128349

exp_avg f4 [16, 4]
000000 00 00 00 00 00 00 00 00 00 00 00 00 00 00 00 00
       0.0 0.0 0.0 0.0
000010 00 00 00 00 00 00 00 00 00 00 00 00 00 00 00 00
       0.0 0.0 0.0 0.0
000020 00 00 00 00 00 00 00 00 00 00 00 00 00 00 00 00
       0.0 0.0 0.0 0.0
000030 04 00 00 00 04 00 00 00 04 00 00 00 04 00 00 00
       6e-45 6e-45 6e-45 6e-45
000040 04 00 00 00 04 00 00 00 04 00 00 00 04 00 00 00
       6e-45 6e-45 6e-45 6e-45
000050 00 00 00 00 00 00 00 00 00 00 00 00 00 00 00 00
       0.0 0.0 0.0 0.0
000060 04 00 00 80 04 00 00 80 04 00 00 80 04 00 00 80
       -6e-45 -6e-45 -6e-45 -6e-45
000070 04 00 00 80 04 00 00 80 04 00 00 80 04 00 00 80
       -6e-45 -6e-45 -6e-45 -6e-45
000080 00 00 00 00 00 00 00 00 00 00 00 00 00 00 00 00
       0.0 0.0 0.0 0.0
000090 00 00 00 00 00 00 00 00 00 00 00 00 00 00 00 00
       0.0 0.0 0.0 0.0
0000a0 04 00 00 80 04 00 00 80 04 00 00 80 04 00 00 80
       -6e-45 -6e-45 -6e-45 -6e-45
0000b0 04 00 00 00 04 00 00 00 04 00 00 00 04 00 00 00
       6e-45 6e-45 6e-45 6e-45
0000c0 00 00 00 00 00 00 00 00 00 00 00 00 00 00 00 00
       0.0 0.0 0.0 0.0
0000d0 04 00 00 80 04 00 00 80 04 00 00 80 04 00 00 00
       -6e-45 -6e-45 -6e-45 6e-45
0000e0 04 00 00 80 04 00 00 80 04 00 00 80 04 00 00 00
       -6e-45 -6e-45 -6e-45 6e-45
0000f0 00 00 00 00 00 00 00 00 00 00 00 00 00 00 00 00
       0.0 0.0 0.0 0.0

exp_avg_sq f4 [16, 4]
000000 00 00 00 00 00 00 00 00 00 00 00 00 00 00 00 00
       0.0 0.0 0.0 0.0
000010 00 00 00 00 00 00 00 00 00 00 00 00 00 00 00 00
       0.0 0.0 0.0 0.0
000020 00 00 00 00 00 00 00 00 00 00 00 00 00 00 00 00
       0.0 0.0 0.0 0.0
000030 b4 e7 5f 3d 93 b2 f2 38 6a ea 06 3e 62 d5 dd 3a
       0.05466433 0.00011572721 0.1317536 0.0016924555
000040 ef 31 5c 3d 5a ba e8 38 ac 4d 03 3e 59 c3 a2 3a
       0.053758558 0.00011097333 0.12822598 0.0012417837
000050 00 00 00 00 00 00 00 00 00 00 00 00 00 00 00 00
       0.0 0.0 0.0 0.0
000060 5e 22 a3 3c d9 00 25 38 e1 f3 3f 3d fd 69 7c 39
       0.019913848 3.9339855e-05 0.04686344 0.00024072076
000070 d7 83 47 3d 5c f0 d0 38 26 40 ed 3d 3a 4d 84 3a
       0.048709717 9.962983e-05 0.11584501 0.0010093816
000080 00 00 00 00 00 00 00 00 00 00 00 00 00 00 00 00
       0.0 0.0 0.0 0.0
000090 00 00 00 00 00 00 00 00 00 00 00 00 00 00 00 00
       0.0 0.0 0.0 0.0
0000a0 76 31 8b 3d 86 c1 13 39 94 47 26 3e d6 29 d9 3a
       0.06796543 0.00014091106 0.16238242 0.0016568254
0000b0 49 23 15 3b aa ff d1 36 71 bf c9 3b c2 34 94 39
       0.0022756627 6.2584486e-06 0.006156855 0.00028268067
0000c0 00 00 00 00 00 00 00 00 00 00 00 00 00 00 00 00
       0.0 0.0 0.0 0.0
0000d0 e6 16 15 39 12 3f a1 34 db 9d af 39 62 a3 34 36
       0.00014218278 3.0034477e-07 0.00033496213 2.6917191e-06
0000e0 fa a8 ab 3c b7 24 26 38 78 c1 46 3d 98 d8 0e 29
       0.020954598 3.9611677e-05 0.04852435 3.17182e-14
0000f0 00 00 00 00 00 00 00 00 00 00 00 00 00 00 00 00
       0.0 0.0 0.0 0.0

exp_avg f4 [16]
000000 00 00 00 00 00 00 00 00 00 00 00 00 04 00 00 00
       0.0 0.0 0.0 6e-45
000010 04 00 00 00 00 00 00 00 04 00 00 80 04 00 00 80
       6e-45 0.0 -6e-45 -6e-45
000020 00 00 00 00 00 00 00 00 04 00 00 80 04 00 00 00
       0.0 0.0 -6e-45 6e-45
000030 00 00 00 00 04 00 00 80 04 00 00 80 00 00 00 00
       0.0 -6e-45 -6e-45 0.0

exp_avg_sq f4 [16]
000000 00 00 00 00 00 00 00 00 00 00 00 00 dc c2 f2 38
       0.0 0.0 0.0 0.000115757546
000010 40 b6 e8 38 00 00 00 00 87 00 25 38 e2 fe d0 38
       0.00011096569 0.0 3.9339557e-05 9.9656885e-05
000020 00 00 00 00 00 00 00 00 4d be 13 39 dc 01 d2 36
       0.0 0.0 0.00014089905 6.258704e-06
000030 00 00 00 00 e4 3a a1 34 93 22 26 38 00 00 00 00
       0.0 3.0031435e-07 3.9609684e-05 0.0

exp_avg f4 [16, 54]
000000 00 00 00 00 00 00 00 00 00 00 00 00 00 00 00 00
       0.0 0.0 0.0 0.0
000010 00 00 00 00 00 00 00 00 00 00 00 00 00 00 00 00
       0.0 0.0 0.0 0.0
000020 00 00 00 00 00 00 00 00 00 00 00 00 00 00 00 00
       0.0 0.0 0.0 0.0
000030 00 00 00 00 00 00 00 00 00 00 00 00 00 00 00 00
       0.0 0.0 0.0 0.0
000040 00 00 00 00 00 00 00 00 00 00 00 00 00 00 00 00
       0.0 0.0 0.0 0.0
000050 00 00 00 00 00 00 00 00 00 00 00 00 00 00 00 00
       0.0 0.0 0.0 0.0
000060 00 00 00 00 00 00 00 00 00 00 00 00 00 00 00 00
       0.0 0.0 0.0 0.0
000070 00 00 00 00 00 00 00 00 00 00 00 00 00 00 00 00
       0.0 0.0 0.0 0.0
000080 00 00 00 00 00 00 00 00 00 00 00 00 00 00 00 00
       0.0 0.0 0.0 0.0
000090 00 00 00 00 00 00 00 00 00 00 00 00 00 00 00 00
       0.0 0.0 0.0 0.0
0000a0 00 00 00 00 00 00 00 00 00 00 00 00 00 00 00 00
       0.0 0.0 0.0 0.0
0000b0 00 00 00 00 00 00 00 00 00 00 00 00 00 00 00 00
       0.0 0.0 0.0 0.0
0000c0 00 00 00 00 00 00 00 00 00 00 00 00 00 00 00 00
       0.0 0.0 0.0 0.0
0000d0 00 00 00 00 00 00 00 00 04 00 00 80 04 00 00 80
       0.0 0.0 -6e-45 -6e-45
0000e0 04 00 00 80 04 00 00 00 04 00 00 00 00 00 00 00
       -6e-45 6e-45 6e-45 0.0
0000f0 04 00 00 80 04 00 00 80 00 00 00 00 04 00 00 80
       -6e-45 -6e-45 0.0 -6e-45
000100 00 00 00 00 00 00 00 00 00 00 00 00 00 00 00 00
       0.0 0.0 0.0 0.0
000110 04 00 00 80 00 00 00 00 04 00 00 80 04 00 00 80
       -6e-45 0.0 -6e-45 -6e-45
000120 04 00 00 80 00 00 00 00 04 00 00 00 04 00 00 80
       -6e-45 0.0 6e-45 -6e-45
000130 04 00 00 80 04 00 00 80 04 00 00 80 04 00 00 80
       -6e-45 -6e-45 -6e-45 -6e-45
000140 04 00 00 80 04 00 00 80 04 00 00 80 04 00 00 80
       -6e-45 -6e-45 -6e-45 -6e-45
000150 04 00 00 80 04 00 00 80 04 00 00 80 04 00 00 80
       -6e-45 -6e-45 -6e-45 -6e-45
000160 04 00 00 80 04 00 00 80 04 00 00 80 04 00 00 80
       -6e-45 -6e-45 -6e-45 -6e-45
000170 04 00 00 80 04 00 00 80 04 00 00 80 04 00 00 80
       -6e-45 -6e-45 -6e-45 -6e-45
000180 04 00 00 80 04 00 00 80 04 00 00 80 04 00 00 80
       -6e-45 -6e-45 -6e-45 -6e-45
000190 04 00 00 80 04 00 00 80 04 00 00 80 04 00 00 80
       -6e-45 -6e-45 -6e-45 -6e-45
0001a0 04 00 00 80 04 00 00 80 04 00 00 80 04 00 00 80
       -6e-45 -6e-45 -6e-45 -6e-45
0001b0 00 00 00 00 00 00 00 00 00 00 00 00 00 00 00 00
       0.0 0.0 0.0 0.0
0001c0 00 00 00 00 00 00 00 00 00 00 00 00 00 00 00 00
       0.0 0.0 0.0 0.0
0001d0 00 00 00 00 00 00 00 00 00 00 00 00 00 00 00 00
       0.0 0.0 0.0 0.0
0001e0 00 00 00 00 00 00 00 00 00 00 00 00 00 00 00 00
       0.0 0.0 0.0 0.0
0001f0 00 00 00 00 00 00 00 00 00 00 00 00 00 00 00 00
       0.0 0.0 0.0 0.0
000200 00 00 00 00 00 00 00 00 00 00 00 00 00 00 00 00
       0.0 0.0 0.0 0.0
000210 00 00 00 00 00 00 00 00 00 00 00 00 00 00 00 00
       0.0 0.0 0.0 0.0
000220 00 00 00 00 00 00 00 00 00 00 00 00 00 00 00 00
       0.0 0.0 0.0 0.0
000230 00 00 00 00 00 00 00 00 00 00 00 00 00 00 00 00
       0.0 0.0 0.0 0.0
000240 00 00 00 00 00 00 00 00 00 00 00 00 00 00 00 00
       0.0 0.0 0.0 0.0
000250 00 00 00 00 00 00 00 00 00 00 00 00 00 00 00 00
       0.0 0.0 0.0 0.0
000260 00 00 00 00 00 00 00 00 00 00 00 00 00 00 00 00
       0.0 0.0 0.0 0.0
000270 00 00 00 00 00 00 00 00 00 00 00 00 00 00 00 00
       0.0 0.0 0.0 0.0
000280 00 00 00 00 00 00 00 00 00 00 00 00 00 00 00 00
       0.0 0.0 0.0 0.0
000290 00 00 00 00 00 00 00 00 00 00 00 00 00 00 00 00
       0.0 0.0 0.0 0.0
0002a0 00 00 00 00 00 00 00 00 00 00 00 00 00 00 00 00
       0.0 0.0 0.0 0.0
0002b0 00 00 00 00 00 00 00 00 00 00 00 00 00 00 00 00
       0.0 0.0 0.0 0.0
0002c0 00 00 00 00 00 00 00 00 00 00 00 00 00 00 00 00
       0.0 0.0 0.0 0.0
0002d0 00 00 00 00 00 00 00 00 00 00 00 00 00 00 00 00
       0.0 0.0 0.0 0.0
0002e0 00 00 00 00 00 00 00 00 00 00 00 00 00 00 00 00
       0.0 0.0 0.0 0.0
0002f0 00 00 00 00 00 00 00 00 00 00 00 00 00 00 00 00
       0.0 0.0 0.0 0.0
000300 00 00 00 00 00 00 00 00 00 00 00 00 00 00 00 00
       0.0 0.0 0.0 0.0
000310 00 00 00 00 00 00 00 00 00 00 00 00 00 00 00 00
       0.0 0.0 0.0 0.0
000320 00 00 00 00 00 00 00 00 00 00 00 00 00 00 00 00
       0.0 0.0 0.0 0.0
000330 00 00 00 00 00 00 00 00 00 00 00 00 00 00 00 00
       0.0 0.0 0.0 0.0
000340 00 00 00 00 00 00 00 00 00 00 00 00 00 00 00 00
       0.0 0.0 0.0 0.0
000350 00 00 00 00 00 00 00 00 00 00 00 00 00 00 00 00
       0.0 0.0 0.0 0.0
000360 00 00 00 00 00 00 00 00 00 00 00 00 00 00 00 00
       0.0 0.0 0.0 0.0
000370 00 00 00 00 00 00 00 00 00 00 00 00 00 00 00 00
       0.0 0.0 0.0 0.0
000380 00 00 00 00 00 00 00 00 00 00 00 00 00 00 00 00
       0.0 0.0 0.0 0.0
000390 00 00 00 00 00 00 00 00 00 00 00 00 00 00 00 00
       0.0 0.0 0.0 0.0
0003a0 00 00 00 00 00 00 00 00 00 00 00 00 00 00 00 00
       0.0 0.0 0.0 0.0
0003b0 00 00 00 00 00 00 00 00 00 00 00 00 00 00 00 00
       0.0 0.0 0.0 0.0
0003c0 00 00 00 00 00 00 00 00 00 00 00 00 00 00 00 00
       0.0 0.0 0.0 0.0
0003d0 00 00 00 00 00 00 00 00 00 00 00 00 00 00 00 00
       0.0 0.0 0.0 0.0
0003e0 00 00 00 00 00 00 00 00 00 00 00 00 00 00 00 00
       0.0 0.0 0.0 0.0
0003f0 00 00 00 00 00 00 00 00 00 00 00 00 00 00 00 00
       0.0 0.0 0.0 0.0

exp_avg_sq f4 [16, 54]
000000 00 00 00 00 00 00 00 00 00 00 00 00 00 00 00 00
       0.0 0.0 0.0 0.0
000010 00 00 00 00 00 00 00 00 00 00 00 00 00 00 00 00
       0.0 0.0 0.0 0.0
000020 00 00 00 00 00 00 00 00 00 00 00 00 00 00 00 00
       0.0 0.0 0.0 0.0
000030 00 00 00 00 00 00 00 00 00 00 00 00 00 00 00 00
       0.0 0.0 0.0 0.0
000040 00 00 00 00 00 00 00 00 00 00 00 00 00 00 00 00
       0.0 0.0 0.0 0.0
000050 00 00 00 00 00 00 00 00 00 00 00 00 00 00 00 00
       0.0 0.0 0.0 0.0
000060 00 00 00 00 00 00 00 00 00 00 00 00 00 00 00 00
       0.0 0.0 0.0 0.0
000070 00 00 00 00 00 00 00 00 00 00 00 00 00 00 00 00
       0.0 0.0 0.0 0.0
000080 00 00 00 00 00 00 00 00 00 00 00 00 00 00 00 00
       0.0 0.0 0.0 0.0
000090 00 00 00 00 00 00 00 00 00 00 00 00 00 00 00 00
       0.0 0.0 0.0 0.0
0000a0 00 00 00 00 00 00 00 00 00 00 00 00 00 00 00 00
       0.0 0.0 0.0 0.0
0000b0 00 00 00 00 00 00 00 00 00 00 00 00 00 00 00 00
       0.0 0.0 0.0 0.0
0000c0 00 00 00 00 00 00 00 00 00 00 00 00 00 00 00 00
       0.0 0.0 0.0 0.0
0000d0 00 00 00 00 00 00 00 00 88 ac 52 3a 27 4f 48 3c
       0.0 0.0 0.00080365734 0.012225903
0000e0 39 5f 48 2f bf 28 87 2e f8 5a d6 24 00 00 00 00
       1.8223724e-10 6.146327e-11 9.296181e-17 0.0
0000f0 78 dc a1 2f e8 d6 8e 2f 00 00 00 00 30 3b 98 2f
       2.9442382e-10 2.598235e-10 0.0 2.7690694e-10
000100 00 00 00 00 00 00 00 00 00 00 00 00 00 00 00 00
       0.0 0.0 0.0 0.0
000110 e9 88 87 2c 00 00 00 00 6b 6a 0d 30 2e 04 6d 30
       3.852131e-12 0.0 5.144673e-10 8.622604e-10
000120 14 c0 61 28 00 00 00 00 3d 63 46 31 e4 da 16 35
       1.2531659e-14 0.0 2.8869203e-09 5.619788e-07
000130 3e d7 1d 34 87 15 d6 34 88 8a 08 34 9d 2c 98 33
       1.4700069e-07 3.987627e-07 1.2716384e-07 7.086167e-08
000140 27 ba df 33 45 5f 30 34 04 84 ae 33 8a 92 49 33
       1.04181076e-07 1.6425936e-07 8.12652e-08 4.6932236e-08
000150 75 9f 81 33 ad c3 f1 33 dd cf 1e 33 cf 8d 79 33
       6.036036e-08 1.125803e-07 3.6976292e-08 5.8103804e-08
000160 e6 60 b4 33 7c db f4 33 24 15 17 34 fe aa 3e 32
       8.399529e-08 1.14020594e-07 1.4070662e-07 1.1098335e-08
000170 65 00 e9 32 c1 c1 c8 33 5f 60 d3 32 1c 74 ac 33
       2.712495e-08 9.3484694e-08 2.4607457e-08 8.030494e-08
000180 c0 8e d6 33 79 01 45 34 32 63 01 34 9c 16 c5 33
       9.9911176e-08 1.834759e-07 1.2050148e-07 9.17764e-08
000190 a2 23 4b 33 5e 08 9c 34 cc 08 17 34 ca 73 89 32
       4.729703e-08 2.9063352e-07 1.4066171e-07 1.6001554e-08
0001a0 c3 80 60 34 2c f5 4a 33 71 a4 33 33 a9 bc e4 39
       2.0908469e-07 4.7254773e-08 4.1826244e-08 0.00043628112
0001b0 00 00 00 00 00 00 00 00 00 00 00 00 00 00 00 00
       0.0 0.0 0.0 0.0
0001c0 00 00 00 00 00 00 00 00 00 00 00 00 00 00 00 00
       0.0 0.0 0.0 0.0
0001d0 00 00 00 00 00 00 00 00 00 00 00 00 00 00 00 00
       0.0 0.0 0.0 0.0
0001e0 00 00 00 00 00 00 00 00 00 00 00 00 00 00 00 00
       0.0 0.0 0.0 0.0
0001f0 00 00 00 00 00 00 00 00 00 00 00 00 00 00 00 00
       0.0 0.0 0.0 0.0
000200 00 00 00 00 00 00 00 00 00 00 00 00 00 00 00 00
       0.0 0.0 0.0 0.0
000210 00 00 00 00 00 00 00 00 00 00 00 00 00 00 00 00
       0.0 0.0 0.0 0.0
000220 00 00 00 00 00 00 00 00 00 00 00 00 00 00 00 00
       0.0 0.0 0.0 0.0
000230 00 00 00 00 00 00 00 00 00 00 00 00 00 00 00 00
       0.0 0.0 0.0 0.0
000240 00 00 00 00 00 00 00 00 00 00 00 00 00 00 00 00
       0.0 0.0 0.0 0.0
000250 00 00 00 00 00 00 00 00 00 00 00 00 00 00 00 00
       0.0 0.0 0.0 0.0
000260 00 00 00 00 00 00 00 00 00 00 00 00 00 00 00 00
       0.0 0.0 0.0 0.0
000270 00 00 00 00 00 00 00 00 00 00 00 00 00 00 00 00
       0.0 0.0 0.0 0.0
000280 00 00 00 00 00 00 00 00 00 00 00 00 00 00 00 00
       0.0 0.0 0.0 0.0
000290 00 00 00 00 00 00 00 00 00 00 00 00 00 00 00 00
       0.0 0.0 0.0 0.0
0002a0 00 00 00 00 00 00 00 00 00 00 00 00 00 00 00 00
       0.0 0.0 0.0 0.0
0002b0 00 00 00 00 00 00 00 00 00 00 00 00 00 00 00 00
       0.0 0.0 0.0 0.0
0002c0 00 00 00 00 00 00 00 00 00 00 00 00 00 00 00 00
       0.0 0.0 0.0 0.0
0002d0 00 00 00 00 00 00 00 00 00 00 00 00 00 00 00 00
       0.0 0.0 0.0 0.0
0002e0 00 00 00 00 00 00 00 00 00 00 00 00 00 00 00 00
       0.0 0.0 0.0 0.0
0002f0 00 00 00 00 00 00 00 00 00 00 00 00 00 00 00 00
       0.0 0.0 0.0 0.0
000300 00 00 00 00 00 00 00 00 00 00 00 00 00 00 00 00
       0.0 0.0 0.0 0.0
000310 00 00 00 00 00 00 00 00 00 00 00 00 00 00 00 00
       0.0 0.0 0.0 0.0
000320 00 00 00 00 00 00 00 00 00 00 00 00 00 00 00 00
       0.0 0.0 0.0 0.0
000330 00 00 00 00 00 00 00 00 00 00 00 00 00 00 00 00
       0.0 0.0 0.0 0.0
000340 00 00 00 00 00 00 00 00 00 00 00 00 00 00 00 00
       0.0 0.0 0.0 0.0
000350 00 00 00 00 00 00 00 00 00 00 00 00 00 00 00 00
       0.0 0.0 0.0 0.0
000360 00 00 00 00 00 00 00 00 00 00 00 00 00 00 00 00
       0.0 0.0 0.0 0.0
000370 00 00 00 00 00 00 00 00 00 00 00 00 00 00 00 00
       0.0 0.0 0.0 0.0
000380 00 00 00 00 00 00 00 00 00 00 00 00 00 00 00 00
       0.0 0.0 0.0 0.0
000390 00 00 00 00 00 00 00 00 00 00 00 00 00 00 00 00
       0.0 0.0 0.0 0.0
0003a0 00 00 00 00 00 00 00 00 00 00 00 00 00 00 00 00
       0.0 0.0 0.0 0.0
0003b0 00 00 00 00 00 00 00 00 00 00 00 00 00 00 00 00
       0.0 0.0 0.0 0.0
0003c0 00 00 00 00 00 00 00 00 00 00 00 00 00 00 00 00
       0.0 0.0 0.0 0.0
0003d0 00 00 00 00 00 00 00 00 00 00 00 00 00 00 00 00
       0.0 0.0 0.0 0.0
0003e0 00 00 00 00 00 00 00 00 00 00 00 00 00 00 00 00
       0.0 0.0 0.0 0.0
0003f0 00 00 00 00 00 00 00 00 00 00 00 00 00 00 00 00
       0.0 0.0 0.0 0.0

exp_avg f4 [16]
000000 00 00 00 00 04 00 00 80 00 00 00 00 00 00 00 00
       0.0 -6e-45 0.0 0.0
000010 00 00 00 00 00 00 00 00 00 00 00 00 00 00 00 00
       0.0 0.0 0.0 0.0
000020 04 00 00 00 04 00 00 80 00 00 00 00 00 00 00 00
       6e-45 -6e-45 0.0 0.0
000030 04 00 00 00 04 00 00 80 04 00 00 80 04 00 00 00
       6e-45 -6e-45 -6e-45 6e-45

exp_avg_sq f4 [16]
000000 00 00 00 00 b2 47 52 31 00 00 00 00 00 00 00 00
       0.0 3.0599776e-09 0.0 0.0
000010 00 00 00 00 00 00 00 00 00 00 00 00 00 00 00 00
       0.0 0.0 0.0 0.0
000020 2b ca 84 33 ea c7 00 32 00 00 00 00 00 00 00 00
       6.183503e-08 7.496036e-09 0.0 0.0
000030 bc d6 04 33 b4 51 74 32 d8 9b 0d 34 9d 1f 09 33
       3.0928945e-08 1.4221246e-08 1.3188344e-07 3.192655e-08

exp_avg f4 [8, 16]
000000 00 00 00 00 00 00 00 00 00 00 00 00 04 00 00 80
       0.0 0.0 0.0 -6e-45
000010 04 00 00 80 00 00 00 00 04 00 00 80 04 00 00 80
       -6e-45 0.0 -6e-45 -6e-45
000020 00 00 00 00 00 00 00 00 04 00 00 80 04 00 00 80
       0.0 0.0 -6e-45 -6e-45
000030 00 00 00 00 04 00 00 80 04 00 00 80 00 00 00 00
       0.0 -6e-45 -6e-45 0.0
000040 00 00 00 00 00 00 00 00 00 00 00 00 00 00 00 00
       0.0 0.0 0.0 0.0
000050 00 00 00 00 00 00 00 00 00 00 00 00 00 00 00 00
       0.0 0.0 0.0 0.0
000060 00 00 00 00 00 00 00 00 00 00 00 00 00 00 00 00
       0.0 0.0 0.0 0.0
000070 00 00 00 00 00 00 00 00 00 00 00 00 00 00 00 00
       0.0 0.0 0.0 0.0
000080 00 00 00 00 00 00 00 00 00 00 00 00 04 00 00 80
       0.0 0.0 0.0 -6e-45
000090 04 00 00 80 00 00 00 00 04 00 00 80 04 00 00 80
       -6e-45 0.0 -6e-45 -6e-45
0000a0 00 00 00 00 00 00 00 00 04 00 00 80 04 00 00 80
       0.0 0.0 -6e-45 -6e-45
0000b0 00 00 00 00 04 00 00 80 04 00 00 80 00 00 00 00
       0.0 -6e-45 -6e-45 0.0
0000c0 00 00 00 00 00 00 00 00 00 00 00 00 04 00 00 00
       0.0 0.0 0.0 6e-45
0000d0 04 00 00 00 00 00 00 00 04 00 00 00 04 00 00 00
       6e-45 0.0 6e-45 6e-45
0000e0 00 00 00 00 00 00 00 00 04 00 00 00 04 00 00 00
       0.0 0.0 6e-45 6e-45
0000f0 00 00 00 00 04 00 00 00 04 00 00 00 00 00 00 00
       0.0 6e-45 6e-45 0.0
000100 00 00 00 00 00 00 00 00 00 00 00 00 04 00 00 80
       0.0 0.0 0.0 -6e-45
000110 04 00 00 80 00 00 00 00 04 00 00 80 04 00 00 80
       -6e-45 0.0 -6e-45 -6e-45
000120 00 00 00 00 00 00 00 00 04 00 00 80 04 00 00 80
       0.0 0.0 -6e-45 -6e-45
000130 00 00 00 00 04 00 00 80 04 00 00 80 00 00 00 00
       0.0 -6e-45 -6e-45 0.0
000140 00 00 00 00 00 00 00 00 00 00 00 00 04 00 00 00
       0.0 0.0 0.0 6e-45
000150 04 00 00 00 00 00 00 00 04 00 00 00 04 00 00 00
       6e-45 0.0 6e-45 6e-45
000160 00 00 00 00 00 00 00 00 04 00 00 00 04 00 00 00
       0.0 0.0 6e-45 6e-45
000170 00 00 00 00 04 00 00 00 04 00 00 00 00 00 00 00
       0.0 6e-45 6e-45 0.0
000180 00 00 00 00 00 00 00 00 00 00 00 00 04 00 00 00
       0.0 0.0 0.0 6e-45
000190 04 00 00 00 00 00 00 00 04 00 00 00 04 00 00 00
       6e-45 0.0 6e-45 6e-45
0001a0 00 00 00 00 00 00 00 00 04 00 00 00 04 00 00 00
       0.0 0.0 6e-45 6e-45
0001b0 00 00 00 00 04 00 00 00 04 00 00 00 00 00 00 00
       0.0 6e-45 6e-45 0.0
0001c0 00 00 00 00 00 00 00 00 00 00 00 00 04 00 00 00
       0.0 0.0 0.0 6e-45
0001d0 04 00 00 00 00 00 00 00 04 00 00 00 04 00 00 00
       6e-45 0.0 6e-45 6e-45
0001e0 00 00 00 00 00 00 00 00 04 00 00 00 04 00 00 00
       0.0 0.0 6e-45 6e-45
0001f0 00 00 00 00 04 00 00 00 04 00 00 00 00 00 00 00
       0.0 6e-45 6e-45 0.0

exp_avg_sq f4 [8, 16]
000000 00 00 00 00 00 00 00 00 00 00 00 00 e7 91 3f 33
       0.0 0.0 0.0 4.460335e-08
000010 17 7c a4 33 00 00 00 00 eb ae 94 34 4c 4e 5a 32
       7.659417e-08 0.0 2.7694418e-07 1.2707073e-08
000020 00 00 00 00 00 00 00 00 4f 4d 05 32 fb ce 21 33
       0.0 0.0 7.759197e-09 3.767398e-08
000030 00 00 00 00 12 49 78 33 94 1e 58 32 00 00 00 00
       0.0 5.7808457e-08 1.2579807e-08 0.0
000040 00 00 00 00 00 00 00 00 00 00 00 00 00 00 00 00
       0.0 0.0 0.0 0.0
000050 00 00 00 00 00 00 00 00 00 00 00 00 00 00 00 00
       0.0 0.0 0.0 0.0
000060 00 00 00 00 00 00 00 00 00 00 00 00 00 00 00 00
       0.0 0.0 0.0 0.0
000070 00 00 00 00 00 00 00 00 00 00 00 00 00 00 00 00
       0.0 0.0 0.0 0.0
000080 00 00 00 00 00 00 00 00 00 00 00 00 3f da 21 33
       0.0 0.0 0.0 3.7684227e-08
000090 5b 7b 8d 33 00 00 00 00 85 e1 7d 34 96 09 2e 32
       6.5882624e-08 0.0 2.3644505e-07 1.0130313e-08
0000a0 00 00 00 00 00 00 00 00 72 24 d2 31 8d 73 09 33
       0.0 0.0 6.1159477e-09 3.200289e-08
0000b0 00 00 00 00 73 85 58 33 a0 34 3d 32 00 00 00 00
       0.0 5.041279e-08 1.10132135e-08 0.0
0000c0 00 00 00 00 00 00 00 00 00 00 00 00 fd 66 ba 32
       0.0 0.0 0.0 2.1700084e-08
0000d0 1d bb 1d 33 00 00 00 00 5c 7e 0e 34 2b 21 d8 31
       3.672459e-08 0.0 1.327075e-07 6.290198e-09
0000e0 00 00 00 00 00 00 00 00 26 d4 89 31 61 2f 9b 32
       0.0 0.0 4.0113433e-09 1.806592e-08
0000f0 00 00 00 00 eb 60 ec 32 85 b4 cd 31 00 00 00 00
       0.0 2.751809e-08 5.986808e-09 0.0
000100 00 00 00 00 00 00 00 00 00 00 00 00 18 32 73 32
       0.0 0.0 0.0 1.4155852e-08
000110 6a 8d d1 32 00 00 00 00 66 73 bd 33 cb fa 89 31
       2.439511e-08 0.0 8.821989e-08 4.0157366e-09
000120 00 00 00 00 00 00 00 00 1b 9f 26 31 c1 23 4e 32
       0.0 0.0 2.424662e-09 1.1998908e-08
000130 00 00 00 00 4c 6e 9e 32 94 e9 89 31 00 00 00 00
       0.0 1.8443778e-08 4.0137795e-09 0.0
000140 00 00 00 00 00 00 00 00 00 00 00 00 6a 1f 21 30
       0.0 0.0 0.0 5.86161e-10
000150 df ef 83 30 00 00 00 00 3a 03 6e 31 12 be 41 2f
       9.59968e-10 0.0 3.4635392e-09 1.7620774e-10
000160 00 00 00 00 00 00 00 00 d6 9a 06 2f 7e cf 01 30
       0.0 0.0 1.2242238e-10 4.722479e-10
000170 00 00 00 00 2b 71 42 30 68 20 29 2f 00 00 00 00
       0.0 7.073761e-10 1.5381973e-10 0.0
000180 00 00 00 00 00 00 00 00 00 00 00 00 99 5c 01 31
       0.0 0.0 0.0 1.8824606e-09
000190 ab 81 56 31 00 00 00 00 2f 9d 41 32 52 84 19 30
       3.1214806e-09 0.0 1.1269818e-08 5.5849114e-10
0001a0 00 00 00 00 00 00 00 00 71 d1 ce 2f ab 12 d3 30
       0.0 0.0 3.762e-10 1.5357576e-09
0001b0 00 00 00 00 5f 13 1f 31 d3 62 0a 30 00 00 00 00
       0.0 2.3148556e-09 5.0344545e-10 0.0
0001c0 00 00 00 00 00 00 00 00 00 00 00 00 08 95 22 32
       0.0 0.0 0.0 9.463527e-09
0001d0 e1 e3 88 32 00 00 00 00 a9 48 77 33 ff 9c 3d 31
       1.5936111e-08 0.0 5.7575253e-08 2.7592362e-09
0001e0 00 00 00 00 00 00 00 00 29 3b f5 30 30 b0 06 32
       0.0 0.0 1.784291e-09 7.839887e-09
0001f0 00 00 00 00 b6 a1 4c 32 b0 0f 32 31 00 00 00 00
       0.0 1.1911132e-08 2.5911326e-09 0.0

exp_avg f4 [8]
000000 04 00 00 80 00 00 00 00 04 00 00 80 04 00 00 00
       -6e-45 0.0 -6e-45 6e-45
000010 04 00 00 80 04 00 00 00 04 00 00 00 04 00 00 00
       -6e-45 6e-45 6e-45 6e-45

exp_avg_sq f4 [8]
000000 6b b7 bd 30 00 00 00 00 12 aa 9e 30 56 9e 36 30
       1.380369e-09 0.0 1.154435e-09 6.6436223e-10
000010 d8 8f f1 2f 6d ed 99 2d 2d 92 79 2e ca b0 9e 2f
       4.3939852e-10 1.7499524e-11 5.6745875e-11 2.886565e-10

exp_avg f4 [8, 16]
000000 00 00 00 00 00 00 00 00 00 00 00 00 00 00 00 00
       0.0 0.0 0.0 0.0
000010 00 00 00 00 00 00 00 00 00 00 00 00 00 00 00 00
       0.0 0.0 0.0 0.0
000020 00 00 00 00 00 00 00 00 00 00 00 00 00 00 00 00
       0.0 0.0 0.0 0.0
000030 00 00 00 00 00 00 00 00 00 00 00 00 00 00 00 00
       0.0 0.0 0.0 0.0
000040 00 00 00 00 04 00 00 00 00 00 00 00 00 00 00 00
       0.0 6e-45 0.0 0.0
000050 00 00 00 00 00 00 00 00 00 00 00 00 00 00 00 00
       0.0 0.0 0.0 0.0
000060 04 00 00 00 04 00 00 00 00 00 00 00 00 00 00 00
       6e-45 6e-45 0.0 0.0
000070 04 00 00 00 04 00 00 00 04 00 00 00 04 00 00 00
       6e-45 6e-45 6e-45 6e-45
000080 00 00 00 00 04 00 00 00 00 00 00 00 00 00 00 00
       0.0 6e-45 0.0 0.0
000090 00 00 00 00 00 00 00 00 00 00 00 00 00 00 00 00
       0.0 0.0 0.0 0.0
0000a0 04 00 00 00 04 00 00 00 00 00 00 00 00 00 00 00
       6e-45 6e-45 0.0 0.0
0000b0 04 00 00 00 04 00 00 00 04 00 00 00 04 00 00 00
       6e-45 6e-45 6e-45 6e-45
0000c0 00 00 00 00 04 00 00 00 00 00 00 00 00 00 00 00
       0.0 6e-45 0.0 0.0
0000d0 00 00 00 00 00 00 00 00 00 00 00 00 00 00 00 00
       0.0 0.0 0.0 0.0
0000e0 04 00 00 00 04 00 00 00 00 00 00 00 00 00 00 00
       6e-45 6e-45 0.0 0.0
0000f0 04 00 00 00 04 00 00 00 04 00 00 00 04 00 00 00
       6e-45 6e-45 6e-45 6e-45
000100 00 00 00 00 04 00 00 00 00 00 00 00 00 00 00 00
       0.0 6e-45 0.0 0.0
000110 00 00 00 00 00 00 00 00 00 00 00 00 00 00 00 00
       0.0 0.0 0.0 0.0
000120 04 00 00 00 04 00 00 00 00 00 00 00 00 00 00 00
       6e-45 6e-45 0.0 0.0
000130 04 00 00 00 04 00 00 00 04 00 00 00 04 00 00 00
       6e-45 6e-45 6e-45 6e-45
000140 00 00 00 00 00 00 00 00 00 00 00 00 00 00 00 00
       0.0 0.0 0.0 0.0
000150 00 00 00 00 00 00 00 00 00 00 00 00 00 00 00 00
       0.0 0.0 0.0 0.0
000160 00 00 00 00 00 00 00 00 00 00 00 00 00 00 00 00
       0.0 0.0 0.0 0.0
000170 00 00 00 00 00 00 00 00 00 00 00 00 00 00 00 00
       0.0 0.0 0.0 0.0
000180 00 00 00 00 04 00 00 80 00 00 00 00 00 00 00 00
       0.0 -6e-45 0.0 0.0
000190 00 00 00 00 00 00 00 00 00 00 00 00 00 00 00 00
       0.0 0.0 0.0 0.0
0001a0 04 00 00 80 04 00 00 80 00 00 00 00 00 00 00 00
       -6e-45 -6e-45 0.0 0.0
0001b0 04 00 00 80 04 00 00 80 04 00 00 80 04 00 00 80
       -6e-45 -6e-45 -6e-45 -6e-45
0001c0 00 00 00 00 00 00 00 00 00 00 00 00 00 00 00 00
       0.0 0.0 0.0 0.0
0001d0 00 00 00 00 00 00 00 00 00 00 00 00 00 00 00 00
       0.0 0.0 0.0 0.0
0001e0 00 00 00 00 00 00 00 00 00 00 00 00 00 00 00 00
       0.0 0.0 0.0 0.0
0001f0 00 00 00 00 00 00 00 00 00 00 00 00 00 00 00 00
       0.0 0.0 0.0 0.0
